…
                          kernel_initializer="he_normal"),
    tf.keras.layers.BatchNormalization(),
    tf.keras.layers.Dense(100, activation="relu",
                          kernel_initializer="he_normal"),
    tf.keras.layers.BatchNormalization(),
    tf.keras.layers.Dense(10, activation="softmax")
])
```


```python
model.summary()
```

    Model: "sequential"
    _________________________________________________________________
    Layer (type)                 Output Shape              Param #   
    =================================================================
    flatten (Flatten)            (None, 784)               0         
    _________________________________________________________________
    batch_normalization (BatchNo (None, 784)               3136      
    _________________________________________________________________
    dense (Dense)                (None, 300)               235500    
    _________________________________________________________________
    batch_normalization_1 (Batch (None, 300)               1200      
    _________________________________________________________________
    dense_1 (Dense)              (None, 100)               30100     
    _________________________________________________________________
    batch_normalization_2 (Batch (None, 100)               400       
    _________________________________________________________________
    dense_2 (Dense)              (None, 10)                1010      
    =================================================================
    Total params: 271,346
    Trainable params: 268,978
    Non-trainable params: 2,368
    _________________________________________________________________



```python
[(var.name, var.trainable) for var in model.layers[1].variables]
```




    [('batch_normalization/gamma:0', True),
     ('batch_normalization/beta:0', True),
…
```python
# extra code – shows how to convert Dropout to MCDropout in a Sequential model
Dropout = tf.keras.layers.Dropout
mc_model = tf.keras.Sequential([
    MCDropout(layer.rate) if isinstance(layer, Dropout) else layer
    for layer in model.layers
])
mc_model.set_weights(model.get_weights())
```


```python
mc_model.summary()
```

    Model: "sequential_25"
    _________________________________________________________________
    Layer (type)                 Output Shape              Param #   
    =================================================================
    flatten_22 (Flatten)         (None, 784)               0         
    _________________________________________________________________
    mc_dropout (MCDropout)       (None, 784)               0         
    _________________________________________________________________
    dense_89 (Dense)             (None, 100)               78500     
    _________________________________________________________________
    mc_dropout_1 (MCDropout)     (None, 100)               0         
    _________________________________________________________________
    dense_90 (Dense)             (None, 100)               10100     
    _________________________________________________________________
    mc_dropout_2 (MCDropout)     (None, 100)               0         
    _________________________________________________________________
    dense_91 (Dense)             (None, 10)                1010      
    =================================================================
    Total params: 89,610
    Trainable params: 89,610
    Non-trainable params: 0
    _________________________________________________________________


Now we can use the model with MC Dropout:


```python
# extra code – shows that the model works without retraining
tf.random.set_seed(42)
np.mean([mc_model.predict(X_test[:1])
…
